mnist_model.pth (torch, 213232 bytes, 6 tensors)

fc1.weight f4 [64, 784]
00000000: b0b8 223c 0c5f fabc 5e83 d1bb 3768 e1bc
00000010: dbe0 e8bb 8eb5 393b ee68 0cbd ab64 083d
00000020: bb22 a4bc a533 9dbb f9e6 01bc 0f1a 0dbd
00000030: 13bf 6e3c a923 cdbc ec13 a13c 5c45 803c
00000040: 1768 ca3b b925 aebb c294 903b 4e8f 3aba
00000050: a79c c6bc d56d c63c 60e2 9fbc c192 e93c
00000060: ddab b4bc 4d46 d5bc 6706 edbc 5302 07bd
00000070: 0ffd 17bd 5b4b 48bc 12c0 9dbc 0462 0abd
00000080: dcfc 723c fa39 56bb f9a0 7a3c add5 eebc
00000090: c012 fb3b 2d82 b83c 2659 983c 0468 50bc
000000a0: e6f5 b7bc 0971 223b 8bf8 0cbb 3a52 99bc
000000b0: 8f7d 373c ba7a e23c 2bf2 25bb 870c f1bc
000000c0: 8ad8 7f3c c287 b9bc fae5 b9bb bf5d 81bc
000000d0: 912c 033d 8b3b bb3c dd16 ea3c d58a 0ebd
000000e0: 2703 bfbc d3ae 02bc 355f 993c 65ef b93c
000000f0: 46fc 013d 18f4 ac3c b1b8 903c b10d 2bbc
00000100: dda3 9e3c 1ee3 8b3c 1884 cfbc a3bb 27bd
00000110: 28c3 2abd 95bc d0bb de91 d2bc d2ca 5cbd
00000120: 4269 b8bd 8613 9ebd 011c c1bc 4625 a8bc
00000130: 003a 03bd e47a f43c 5106 073d 2398 b6bc
00000140: bbc0 a13c 707b 003c 2abb 073c ed3c 3039
00000150: 3480 a23a cd8a 4cbc 9401 aabc 3c43 cebc
00000160: 8a94 9d3c dabf 08bc c610 fbbc f031 893c
00000170: dcec 243c 6197 8e3a 96eb 683d 737c 6c3d
00000180: 54bb f4ba adce d33c 223e e7bc 9dd5 a0bd
00000190: 89e5 a3bd f163 1bbc 432d bfbc 2a55 043a
000001a0: 1009 f1bc b253 fb3b 1bc3 12bd 3d45 9b3b
000001b0: ab98 02bd c25e f93c 0708 8b3c 87b5 76bc
000001c0: 740e 0bbd a524 df3c 1ba9 5abc 860d d63c
000001d0: 55b2 f7bc 9e5e c03a e504 063d f813 f13c
000001e0: 152b 1d3d f9d8 cb3d f0df cf3d fd65 073e
000001f0: 1994 aa3d fa30 c83d 36b8 b8bd dde2 0ebb
00000200: 2bad e2bd fee2 e6bd 4dbe b3bd 94c7 e8bd
00000210: 19ec cfbd b7a3 9bbd 9dee 24bd 5a64 4dbd
00000220: 1f3f a4bb 992b a1bb c626 0f3c 4e5f 96bb
00000230: 3df3 9abc d275 7cbc 150f b43b 6f60 7b3c
00000240: 4013 6abb f131 8f3c 019a 393d bff0 bc3d
00000250: 5a5f 5e3d 5778 063e 65e7 1f3e 8e99 143e
00000260: d39d 0a3d 9ce8 433c 4aae 283e d3c1 863d
00000270: 55de 77bd 7615 a6bd 4243 b7bd fe3a cabd
00000280: 22bb d6bd 8592 84bd d286 4cbd c717 06bd
00000290: 6a90 5c3c c332 883b f93e 0bbd 9f89 e6bc
000002a0: 59ca 923c 60c6 d9bc 4e63 a03b c269 24bb
000002b0: 02c5 0d3d 0490 b43c fa92 913d 3472 f83d
000002c0: 685b 2a3e 5e20 213e ea4e 673e cdca 583e
000002d0: c9e3 713d 12fb a13d f45b 30b8 2a89 bc3d
000002e0: b3a6 3b3a 012b fa3c 0506 9abb 68cd 50bd
000002f0: ee36 8dbd 8732 3dbd 48d1 8ebd 22bf 65bd
00000300: e56c 42bd 8915 15bd 2366 83bc 1732 90bc
00000310: c755 d83c 80c3 12bc 7b7e e13c b94a 2f3d
00000320: 7506 d03d eaef 0b3e adb1 283e fe53 353e
00000330: 1b95 fe3d 09f2 c63d 99e6 283e 911f d73d
00000340: ec80 3a3d d8e2 1c3e 342f b13c fe2d b13d
00000350: 87a7 2d3d fb05 863b 2915 b03b 8644 8ebd
00000360: 6e7a 82bd 4f2e a4bc 3d1d 08bd a449 bbbd
00000370: 393b 5fbd e54a 59bd df7d 2fbc c56b 083d
00000380: 2887 b93b 3315 0abd 5cde 19bc 7e91 783d
00000390: 9603 003e ca2e af3d db51 ed3d 7089 943d
000003a0: a803 813c 9b9e 0e3b 7372 0e3e 49b6 ad3c
000003b0: 5399 cf3d c0ca 113e b947 523e 15d3 4a3e
000003c0: 8ec0 223e e81b 293e 76be 7f3c 52b2 3b3c
000003d0: 0d3b 503d c487 95bc 0dee f73d 587e 5fbd
000003e0: 494d bcbd fe96 0cbc 31d0 13ba 636e 80bb
000003f0: 6562 bc3b dd8f b53c e2dc 2a3c a7cf 813b
0.009931728 -0.0305629 -0.006393834 -0.027515514 -0.007106883 0.0028336975 -0.034279756 0.03329913
-0.020036092 -0.0047974163 -0.007928603 -0.03444868 0.014571923 -0.025041418 0.01966282 0.015658073
0.0061769593 -0.0053145555 0.0044122646 -0.0007116691 -0.02424462 0.024222294 -0.019517124 0.02851236
-0.022054607 -0.026034499 -0.028933717 -0.0329612 -0.03710657 -0.012224997 -0.019256625 -0.03378488
0.014830794 -0.0032688365 0.015297168 -0.029154623 0.0076621473 0.02252301 0.018597197 -0.012720112
-0.02245612 0.0024786612 -0.0021510448 -0.018715966 0.011199369 0.027646411 -0.0025321345 -0.029424919
0.015615592 -0.022647742 -0.0056731673 -0.015791772 0.032024924 0.02285554 0.028575355 -0.03480037
-0.023316933 -0.007976252 0.018722156 0.02269716 0.031734727 0.021112487 0.017666193 -0.010440276
0.019365245 0.017076071 -0.025331542 -0.04095043 -0.04169002 -0.006370137 -0.02570432 -0.053904362
-0.09004451 -0.077185676 -0.023572924 -0.020525586 -0.032037735 0.029843755 0.03296501 -0.022289341
0.019745221 0.00784193 0.0082843695 0.00016807365 0.0012397827 -0.012484265 -0.020752706 -0.025178544
0.019235868 -0.008346522 -0.030647647 0.016747445 0.010066237 0.0010878855 0.056865297 0.05773587
-0.0018671551 0.025855387 -0.02822787 -0.078532435 -0.08002765 -0.009484277 -0.023337012 0.0005048091
-0.029423267 0.0076698894 -0.0358306 0.0047384785 -0.031883877 0.030440692 0.016971601 -0.015057928
-0.03394933 0.027239153 -0.013345982 0.026129495 -0.030236403 0.0014676636 0.03271951 0.029428467
0.038371164 0.099534936 0.101501346 0.13222499 0.08329029 0.097749665 -0.090195104 -0.0021802702
-0.110681854 -0.11273764 -0.08776531 -0.113661915 -0.10152454 -0.075995855 -0.04026662 -0.05014453
-0.0050124074 -0.0049185273 0.008737272 -0.004588998 -0.018914813 -0.01540895 0.005494962 0.015342816
-0.003571704 0.017479869 0.045312885 0.09225606 0.054290153 0.13131844 0.15615614 0.14511701
0.03384192 0.011957314 0.16472736 0.06579938 -0.060514767 -0.08109562 -0.08948375 -0.09874533
-0.104849115 -0.06473259 -0.049933262 -0.03273752 0.013462165 0.004156442 -0.033995602 -0.028141795
0.017918753 -0.02658385 0.0048946505 -0.002508745 0.03461171 0.022041328 0.07108112 0.121311575
0.16636431 0.15735003 0.22588697 0.21171112 0.059055123 0.07909216 -4.2047308e-05 0.092058495
0.0007158324 0.030538084 -0.0047004246 -0.05097714 -0.06895243 -0.046190765 -0.06973511 -0.05609048
-0.04746713 -0.03639749 -0.016039914 -0.01760201 0.02640809 -0.008957744 0.02752613 0.04279587
0.101574816 0.13665739 0.16474028 0.17707822 0.12430783 0.09714133 0.16494216 0.10504068
0.045533106 0.15320909 0.021628954 0.086513504 0.042396095 0.0040900684 0.0053736162 -0.069466636
-0.06371008 -0.020041613 -0.03323101 -0.09144905 -0.05449984 -0.05304994 -0.010711162 0.033305902
0.005661864 -0.033711623 -0.0093913935 0.060685627 0.12501368 0.08553846 0.11587878 0.072527766
0.015748814 0.0021762017 0.13910846 0.021205084 0.10136666 0.14237499 0.20535173 0.19807084
0.15893766 0.16514552 0.015609374 0.011456089 0.050837565 -0.018253215 0.121059515 -0.05456385
-0.091944285 -0.008580921 -0.0005638628 -0.003919409 0.005749034 0.022163326 0.010428639 0.0039615217

fc1.bias f4 [64]
00000000: c1eb 8a3c 5b2e 613d e7ec ec39 e810 593a
00000010: cc87 c73c de38 fc3b e14b 94bc 9429 8dbc
00000020: 0139 1cbb 6311 423d 651e 5e3d e59f 043c
00000030: a5a0 fa3c cdd6 3ebd ed5d 553d 9ccd f93c
00000040: e208 bfbc 31f4 56bd f4db 52bc 6be5 823c
00000050: 75dd 813c c390 ecbc ae8c cd3c a920 bfbc
00000060: d5ec 5fba cfc7 98bc adc6 16bd 1902 eebc
00000070: ee98 10bd ef63 b03b bdf0 82bc 09f8 013d
00000080: 5ac6 ee3c 610c 0a3c 51a8 24bd 6717 1c3d
00000090: 7f1a f43c df7d 153c d2aa c53c b4b0 cfbc
000000a0: 4bcb 5abc 816c 13bd a66e 4ebd 3611 683c
000000b0: d29e 8cbd b154 0dbd 1284 c7bc ca2a 60bd
000000c0: 784a dbbc 2889 26bd 7b8c 1ebc 9823 8e3b
000000d0: c0ed 19bd 2f4a 8f3c 65ce fabc da54 c8bc
000000e0: 3506 02bd e9f5 66bd 114a afbc 8575 483c
000000f0: 7810 4f3d 6b6e bebc 204b d3bb 9d9d 823b
0.01695812 0.05497585 0.00045189934 0.00082804123 0.024356745 0.007697209 -0.018102588 -0.01723174
-0.0023837688 0.047379863 0.054228205 0.008094762 0.03059418 -0.04659157 0.052091528 0.03049355
-0.023319665 -0.052478973 -0.012869824 0.015978536 0.01585267 -0.028877622 0.025091495 -0.023331003
-0.00085420656 -0.018649964 -0.036810566 -0.029053735 -0.035302095 0.0053830068 -0.015983934 0.031730685
0.029147316 0.008425803 -0.04019958 0.038108256 0.02979779 0.009124248 0.024129305 -0.025352813
-0.013354133 -0.03599215 -0.05039849 0.01416426 -0.0686623 -0.034504596 -0.024354968 -0.054728307
-0.026768908 -0.040658146 -0.009677048 0.004337739 -0.03758025 0.017491428 -0.030615995 -0.024454523
-0.0317442 -0.056386862 -0.021397622 0.01223505 0.050552815 -0.02324601 -0.0064481646 0.003986074

fc2.weight f4 [32, 64]
00000000: aab0 82be db6d d4be 3575 e5bd 1313 053e
00000010: 38fb 963d c4ba 9dbe abd3 b0be fd55 32be
00000020: 2f9f 0c3d e100 6b3d 0d5e 78be 3f8a 81bd
00000030: 19f2 1fbb 5f2d 603e 1cbd 87bd d37d e4be
00000040: dca8 19bc c80f e6bd 5d18 013e b41b 07be
00000050: 197b c83d f5c8 33be 8de1 f1be a6ef d5bc
00000060: 7192 963e cb1a 973e c16d 9b3e 81f7 84bd
00000070: 469a 91bc cce6 1d3e 3185 823e 9ad7 c13e
00000080: b83c c1be 3fa0 913e 7646 bd3e 1475 7d3e
00000090: 92f5 e23e 6cfa b3be b757 883e 2ec7 a0bc
000000a0: ecfa e3be 3c48 ab3c eecb 803e 4e20 713e
000000b0: 44c2 a33e af34 a53e b588 c6be bfa6 f53e
000000c0: 3b36 a7bb f26d 06bf 7398 d83e 6a8d 2a3d
000000d0: cfa9 653e 5c71 98be 2183 7d3e 556a 47bd
000000e0: e147 48bc 152c 993d 42ee fdbd a13c 623e
000000f0: 24f4 46be 24cc 66bd 7ca9 c83e 31ed 69be
00000100: f9ea abbe 0a5b 8cbd 47b7 143e 5278 0f3d
00000110: ce05 04bf ad7d 493d 4fc5 18be 3e09 edbe
00000120: 0351 1e3e 4772 183e 7a0e babd 1eee 9dbe
00000130: 43a2 8b3e 0011 723d 9f9b d63e 5800 2b3e
00000140: d976 d73b 7c72 333e c782 26be 27b6 cabe
00000150: 348c 94bd a358 95be 24b2 90be 16f9 593e
00000160: 3b4e 3f3e 4416 91bd a544 7ebd fa1a 953e
00000170: d1c3 e0bd 565a 883e 58f1 37be 897b b53e
00000180: bca7 debd b0a9 9cbe 7a87 c7bd 9a84 333d
00000190: a067 ccbb 54a9 d3be bff9 08be 9dec 753e
000001a0: bb75 983d 57d8 cb3e 6c82 d1bd aa15 1f3e
000001b0: 0675 a7be ceca ca3e ac95 813e 0052 073e
000001c0: bd85 73bd f5a1 4dbd f09f a6bd cdd5 c7be
000001d0: 1c28 bb3d 1bac 9c3e d8ef 2bbe 6c2d 743e
000001e0: 2dca c9be 3da7 d43d 6ee5 07be 3b8c 893e
000001f0: b6f7 3fbe 2d8f 6bbe 2c0c 1e3d bde5 5b3d
00000200: 1f79 92be 2eae 613e 4d8a 7b3d 32c8 0cbd
00000210: f921 88be bb9d b23d 5bf6 c2bd 13da 68be
00000220: e95e a73d f591 8dbc ea28 2fbe c4ba a73e
00000230: 7762 733e d08b d7bd 80d8 3a3d d99a 953d
00000240: f4ce 8fbc f899 ba3d ef78 8bbd 0cde 69be
00000250: 0761 433e 8f20 d2bd f9b1 9b3e 4e8e 80bb
00000260: 8501 9fbe 15e5 4ebe 2c24 7dbe d835 ae3d
00000270: 9112 e63d 5b4f f63d 7481 9ebd fc51 94bd
00000280: b3eb 2fbd 301f 16be c787 4abd db26 09be
00000290: e8e1 b3bd ffea 2abd 6284 babc 5a95 2c3e
000002a0: 56c8 aebd 5f29 283e 1ef4 09bd c69c 873e
000002b0: 7095 c13d a1e5 463d 40f2 e7bd 81f1 db3d
000002c0: ee42 b63c 7bbd 9c3c c9a2 18be 8795 88bd
000002d0: 90b4 02be cd1f 873d 29d4 843e f3a7 7b3d
000002e0: 4899 65be 7d2a 1f3d 4292 493d 0268 6b3e
000002f0: 70ed 1ebe 2e43 bbbd 954a a5be f3a9 81be
00000300: e845 4739 279c 82be a1fb abbd 14ca 2c3e
00000310: 6e98 813d 7c71 c33d 0fc2 18be 804f 393e
00000320: 0d89 3b3e 456b 8c3e 261e babe 5300 bcbb
00000330: a895 223c a01e 16be 642e 63be 0835 74bc
00000340: f221 5cbe ef4f 22bd 513d ae3d 778b 9fbe
00000350: 3fdf 7ebe 8083 a8bb bfae b33d b5d2 373d
00000360: adfa a83d b5ca 4e3e 401e 7e3e d730 5c3e
00000370: da0e 283d 732c 9cbe de75 44be 943c 453e
00000380: 25d6 0e3e e058 e03c 7411 0c3e df8a 6dbd
00000390: eb61 bfbd b7d4 073e 9d0d 82bd 43e7 093d
000003a0: 4971 db3d 61cf c73d a82f 2abe b9b8 12be
000003b0: ebae 41be 5bb5 87be 61fa a03d 01fe 09be
000003c0: 6adc 47be 94c0 46be 9905 a03d 5fc9 2e3e
000003d0: 6d58 cc3d 9bed 75bc 5201 9b3e fc62 60bd
000003e0: d4b6 5bbc cfeb e2bb 3346 5bbe df07 0bbe
000003f0: a87b 91be f660 033c 9c2f ed3e fb35 4e3d
-0.2552541 -0.41490063 -0.11203996 0.12995557 0.07372135 -0.30806553 -0.3453649 -0.17415614
0.034331497 0.057373885 -0.24254628 -0.063251965 -0.0024405776 0.21892308 -0.066278666 -0.44627246
-0.009378638 -0.11233479 0.1260695 -0.13194162 0.09789104 -0.17557128 -0.47242394 -0.02611525
0.294086 0.2951263 0.30357173 -0.0649252 -0.017773759 0.15420073 0.25492242 0.37859803
-0.37741637 0.2844257 0.3696782 0.24751693 0.4432798 -0.35151994 0.2662942 -0.019626226
-0.44527376 0.020908467 0.25155586 0.2354748 0.3198415 0.32266757 -0.38776174 0.4797878
-0.0051029003 -0.52511513 0.4230381 0.04163877 0.22428058 -0.29773986 0.24757053 -0.04868539
-0.0122241685 0.07479111 -0.1239896 0.2209344 -0.1942907 -0.056347027 0.39191806 -0.22844388
-0.33577707 -0.06853302 0.1452304 0.035026856 -0.5157136 0.04919212 -0.14919017 -0.46296114
0.15460591 0.14887343 -0.090847924 -0.30845731 0.27272233 0.059098244 0.41915604 0.1669935
0.006575447 0.17524141 -0.16260825 -0.39592096 -0.07253304 -0.29169187 -0.2826091 0.21286425
0.18682186 -0.07084325 -0.062077183 0.29122144 -0.10974849 0.2663142 -0.17963159 0.35445812
-0.108718365 -0.3059821 -0.09742637 0.04382763 -0.006237939 -0.41340125 -0.1337652 0.24016042
0.0744433 0.39813492 -0.10229954 0.15535608 -0.3270647 0.39607853 0.25309503 0.13214874
-0.059453715 -0.050203282 -0.081359744 -0.39030305 0.0913851 0.30600056 -0.16790712 0.23845452
-0.3941206 0.10383461 -0.13271114 0.268648 -0.18746838 -0.23003836 0.038585827 0.053685892
-0.28608033 0.220391 0.06141119 -0.03437061 -0.2658842 0.08721491 -0.09519645 -0.22739439
0.081723996 -0.017281512 -0.17105451 0.32759678 0.2376803 -0.10524714 0.045616627 0.073049255
-0.017554738 0.091113985 -0.068101756 -0.2283861 0.19079982 -0.10260116 0.3040922 -0.003923214
-0.31055847 -0.20204575 -0.2472083 0.08506364 0.1123401 0.120268546 -0.07739535 -0.072422
-0.04294939 -0.14660335 -0.049445894 -0.13393728 -0.087833226 -0.041728016 -0.022768203 0.16853848
-0.08534305 0.16422032 -0.033680074 0.26486796 0.09452331 0.048558835 -0.113255024 0.107394226
0.022248711 0.01913332 -0.14905848 -0.06669145 -0.12764192 0.065978624 0.25943115 0.061439466
-0.22421753 0.03885888 0.049211748 0.22988895 -0.15520263 -0.09143673 -0.32283464 -0.25324973
0.00019004161 -0.2550976 -0.08397604 0.16873962 0.06327902 0.0954313 -0.14917777 0.18096733
0.18314 0.2742559 -0.36351126 -0.0057373433 0.009923376 -0.1466012 -0.22185665 -0.014905222
-0.21497324 -0.039627012 0.08507789 -0.3116109 -0.24889849 -0.005142629 0.087735645 0.04487868
0.082509376 0.20194514 0.24816227 0.21503006 0.04102979 -0.30502662 -0.19185588 0.1926139
0.13948877 0.027386129 0.13678533 -0.057993766 -0.09344848 0.13264738 -0.06350253 0.033667814
0.10714967 0.09756351 -0.16619742 -0.14328279 -0.18914382 -0.2650555 0.07860256 -0.13475801
-0.19517675 -0.194094 0.07813568 0.17069004 0.099778034 -0.015010263 0.30274445 -0.0547819
-0.013410289 -0.006925083 -0.21413498 -0.13577221 -0.28414655 0.008018723 0.46325386 0.05034445

fc2.bias f4 [32]
00000000: 0ed3 713c d709 243e 4f39 9ebc b062 cd3d
00000010: 7fde 56bc bfd6 59bd 9406 983d d791 b7bd
00000020: a02e a8bd bc6c 413d d245 c53d 728e 00be
00000030: 271c ec3d 17b8 1ebd 6cb1 ac3d ea00 b03d
00000040: b29a 1a3d ac4e 87bd 0ad9 0fbe dac8 e73d
00000050: 0ea2 9e3e 6e1a f63d 49fa b43d 5495 84bc
00000060: 19c9 83bd ad36 52bb ef24 763e 2ae5 323e
00000070: f488 03be 9c55 4cbd 00f9 1dbe c75a fa3d
0.014759792 0.16019379 -0.019314436 0.10028589 -0.013114571 -0.053183313 0.0742313 -0.089633636
-0.08212018 0.047222838 0.09632458 -0.12554339 0.11528807 -0.03874978 0.08432278 0.08593924
0.037745185 -0.06606802 -0.14047638 0.11317606 0.30983013 0.1201676 0.088368006 -0.016184486
-0.06434841 -0.0032076046 0.24037527 0.17470232 -0.12845212 -0.04988633 -0.15427017 0.12224346

fc3.weight f4 [10, 32]
00000000: eda8 85be 5dae 11bf 4b41 f1bd 26cc 913e
00000010: b951 debe a65f 9dbe 1e2f 823e c7c5 2fbe
00000020: b572 923c 53cc debe 72f6 94be a0b5 763f
00000030: 21eb 2b3e 1f61 11be 6cbc a3be 3d03 92be
00000040: 4fe0 9fbb a4ea 18be bfdf e1bd 145c 4d3f
00000050: daf4 66be 1a82 7c3e 0668 f0bd c72e 18bf
00000060: 43ea 143d 0db7 a63e 3991 93bd 8066 1abb
00000070: 6f81 86be 9541 ec3d 5e0d 093f 9253 95bc
00000080: 8360 3a3f ee6c ebbd 9c47 1cbe 93c9 e9bd
00000090: ceb5 c33e 2b21 81be c926 2d3f df3d 613e
000000a0: 26ee 56be 8ae4 233f 6795 33bd 0f89 95bd
000000b0: 8bcf 3f3d b076 5ebc 4bbe 303f cd72 5dbd
000000c0: 1931 93be f3d6 963e 42f0 39be c78f 3ebe
000000d0: aec0 b13d 79be 77bc 60fa 9fbe 9b38 31bd
000000e0: 83ad f4bd f634 cebd 0587 22bf 6266 9dbe
000000f0: c901 43be cc64 903e 4b8d e0be 352e 4d3e
00000100: e77c 8abe 9e34 e6be 2ea7 d6be e117 20be
00000110: 2651 18bd b4ba d33e dd0f e13e 3181 2b3e
00000120: 7fa4 773f e7fe ab3d 3473 4ebe 12bb b03e
00000130: 58ae 0b3e b605 25bf c88a 89bd 75ed 903e
00000140: 3470 353d ef06 0e3f bc36 cb3e 016c 1dbf
00000150: 6cad 42be 731c 253f 0125 12bf 9542 893e
00000160: c42a 003f 8ba3 85be 1288 0bbd e33d 18bf
00000170: b84b bf3d 7c10 17be 6062 88be ff3d d0bd
00000180: a09d c3be d2f7 a7be 3f4e 3bbd 98e7 4cbe
00000190: 0450 de3e 3471 85be d29e 0cbf ec21 67be
000001a0: 2ca0 ee3e fac0 123f 8ebd b03e 6f4e 34bf
000001b0: 5237 c9bc 1e19 283f 0245 17bf 9440 833d
000001c0: d512 8bbe 4e78 21be 29df 26bd 0f2e 9fbe
000001d0: f3ed b5bd 1745 063f dcbb 12bf 8ea1 b23e
000001e0: b21d babe 165c d83e 2da7 ddbd 733c 013f
000001f0: abfb 7b3d e3a3 1e3e 9525 50bd 47d4 c9be
00000200: 0413 443f 2c96 3e3f 2a30 55be 7abc 813e
00000210: 9bd9 91be 4663 1e3e 2998 5fbe af55 f53d
00000220: 9a88 cfbe 0cc6 9cbd fa48 b03c cc2e 74bd
00000230: ac1d 2c3e b64b cdbe 0639 2f3e 3349 463f
00000240: 9f4a 4c3f 103b a2be 7e02 87bc 2476 ffbb
00000250: c7aa 3bbf 6256 e0be 0b06 a2bd 1e18 0bbe
00000260: 5ac3 2dbe 2f23 17be 58d1 033e d4f4 a03e
00000270: 5e87 b63e 9dd1 39bf a7a2 d1be ee86 80be
00000280: b780 6abe a742 b23e 1b7e 4e3b a81e b63d
00000290: 696c 943d f0de 87bd 1229 00bf e30c d6bc
000002a0: 95f5 cabd ac55 bbbe 50c2 9dbe 1211 15bf
000002b0: 5368 b33d 817d 503f 69d6 9a3e 14e0 eb3e
000002c0: c2fc 87be c9bd 673e 2cfa bd3d 8fca 5abe
000002d0: 429d bc3d 6960 c23d 5c19 223f cb93 023f
000002e0: 7c01 bebe da25 5cbe be16 babe 612a 54be
000002f0: 990a 00bf 52b2 163f 8261 473f f01d 61be
00000300: 18c8 b6be 7cf3 8d3e 2e30 373f 9ad2 94be
00000310: dc4b b0be d1aa 273d 6618 983e 6fee 283b
00000320: 3a2e e4be 745e 17bf 95aa e43d 5baf 543e
00000330: c99c 8cbd f84c 013f bbdc 77bd 3a93 1cbf
00000340: e771 043f 32c6 2e3f d22f 43bd 9959 203f
00000350: 6c61 22be 8c1a c0bd 4e6a 3cbd 7dd0 50be
00000360: e8e8 013f f908 45be 2252 f3be 722f 58be
00000370: c4b4 31be 7259 efbe 0d00 2e3e 4d92 8d3d
00000380: 91b1 0a3f c5f2 80be 6d2c 823e ae4d 4a3e
00000390: e95b 433f 14a0 0e3f bca9 14be 491f 84be
000003a0: b5d0 bb3e 46ce 85be c1cf 1c3e c744 813e
000003b0: dae6 58bd eb3c 16be 5a65 84be 5898 dcbe
000003c0: 42cb 82be 7de9 02be a2c0 bcbe 9f3b b43d
000003d0: 8c48 993c cb99 14bf 3015 493e b273 9cbe
000003e0: f968 123e 485f 95be 5f60 6ebc 067b 493d
000003f0: 5df5 323f 0486 103f a1d1 2fbe d3f5 30be
-0.26105443 -0.5690668 -0.11780032 0.28476065 -0.43421724 -0.30737036 0.25426573 -0.1716529
0.017876962 -0.43515262 -0.29094273 0.9637089 0.16788913 -0.14197205 -0.31979692 -0.28518096
-0.0048790346 -0.14933258 -0.11029004 0.80218625 -0.22554341 0.24659005 -0.11738591 -0.59446377
0.036356222 0.32561532 -0.072054334 -0.002355963 -0.26270625 0.11535946 0.5353602 -0.018228326
0.72803515 -0.11495386 -0.15261692 -0.114154 0.38224643 -0.25220618 0.67637306 0.21996258
-0.20989284 0.640206 -0.043843653 -0.073015325 0.046828788 -0.013578102 0.69040364 -0.05406456
-0.28748396 0.29460868 -0.18158057 -0.18609534 0.08679329 -0.015121096 -0.31245708 -0.043266874
-0.11947157 -0.10068695 -0.63487273 -0.30742174 -0.1904365 0.28201902 -0.43857798 0.20037158
-0.27048418 -0.4496202 -0.41924423 -0.15634109 -0.037186764 0.4135338 0.43957415 0.16748501
0.96735376 0.08398228 -0.20161134 0.34517723 0.13640726 -0.6446184 -0.067159235 0.28306165
0.04429646 0.5547933 0.39690197 -0.61492926 -0.19011468 0.64496535 -0.57087713 0.2680861
0.50065255 -0.26101336 -0.034065314 -0.5946943 0.09340614 -0.14752382 -0.26637554 -0.10168075
-0.38206196 -0.3280626 -0.04572892 -0.20010221 0.43420422 -0.2606293 -0.5492984 -0.22571534
0.46606576 0.5732571 0.3451962 -0.7043218 -0.024562512 0.65663326 -0.5908967 0.06408802
-0.27162805 -0.15768549 -0.040740166 -0.31089827 -0.08883276 0.5244917 -0.573179 0.3488888
-0.3635078 0.42257756 -0.10822902 0.50482863 0.061519306 0.15492205 -0.05081709 -0.39419767
0.76591516 0.74447894 -0.20819154 0.2533911 -0.28486332 0.15467557 -0.21835388 0.119792335
-0.40533906 -0.07654962 0.021519173 -0.05961494 0.16808194 -0.40096825 0.17111596 0.77455443
0.7980136 -0.31685686 -0.01648068 -0.007796066 -0.7330746 -0.43815905 -0.07911309 -0.13583419
-0.16969052 -0.14759515 0.12872827 0.3143679 0.35650152 -0.7258547 -0.40944406 -0.25102943
-0.22900663 0.34816477 0.003150827 0.08892566 0.0724724 -0.06634319 -0.5006267 -0.026129192
-0.09910122 -0.365888 -0.3081231 -0.5822917 0.08760133 0.81441504 0.30241707 0.46069396
-0.26560026 0.22630991 0.09276232 -0.21366332 0.09209682 0.09491045 0.63319945 0.51006764
-0.37110507 -0.21498814 -0.36345476 -0.20719291 -0.5001617 0.58865845 0.7788316 -0.21984076
-0.35699534 0.27724826 0.7155789 -0.29066926 -0.34432876 0.040934388 0.29706115 0.0025776883
-0.44566518 -0.591285 0.111653484 0.20770018 -0.06865842 0.5050807 -0.06051324 -0.6116215
0.517363 0.6827117 -0.047653027 0.62636715 -0.15857476 -0.093800634 -0.045999818 -0.20392032
0.5074601 -0.19241704 -0.475236 -0.21111849 -0.17354113 -0.4674793 0.16992207 0.0691267
0.54177195 -0.25185218 0.2542452 0.19756195 0.7631212 0.5571301 -0.14517874 -0.2580512
0.36682668 -0.26133937 0.15313627 0.25247785 -0.052954532 -0.14671676 -0.25858575 -0.4308498
-0.25545698 -0.12784381 -0.36865717 0.08800434 0.01871135 -0.5804717 0.19636989 -0.3055702
0.14297856 -0.29174256 -0.014549344 0.04918959 0.69905645 0.5645449 -0.17169811 -0.17281274

fc3.bias f4 [10]
00000000: 4577 0dbe 5030 01be 7c64 763d 88c9 bd3d
00000010: c1f3 823d 257a 8cbd 3a16 8f3c 5130 41be
00000020: f52c c73e 7d24 b23d
-0.13815029 -0.12616086 0.060154423 0.09266955 0.063941486 -0.06859235 0.017466653 -0.18866087
0.38901487 0.08698366
